pset05/mcmc/mcmcdata/2022-10-21T00:07:22.962515_params.npy (npy, 48176 bytes, 1 tensors)

array f8 [1001, 6]
00000000: 7242 b71b e835 3e40 9075 e6f3 52e4 a63f
00000010: 02a2 b94c 7b2f d03f 58bf 6344 24bd 50bf
00000020: c9ae fa3b ed8a 2e3e 4f03 65e6 4ab1 ff3f
00000030: 6ca4 fb23 7a9e 3d40 c879 295e 98e3 a63f
00000040: b041 c028 3845 d03f 9b6d 5772 180e afbf
00000050: 4016 98a2 fd53 2c3e ded4 f983 c5ad ff3f
00000060: c75a 1ddf f8cf 3c40 adb5 a7d4 e6cc a63f
00000070: 410b 75f5 435f d03f f5c1 4b50 2870 bcbf
00000080: 7515 afa2 8789 2a3e f626 b0d2 597d ff3f
00000090: c75a 1ddf f8cf 3c40 adb5 a7d4 e6cc a63f
000000a0: 410b 75f5 435f d03f f5c1 4b50 2870 bcbf
000000b0: 7515 afa2 8789 2a3e f626 b0d2 597d ff3f
000000c0: 03bd 1f34 8089 3c40 7bf9 a712 7eca a63f
000000d0: 4abc ab80 c86e d03f 3280 3937 8e75 c3bf
000000e0: b3d6 798f 1412 293e 2a8e a662 6c65 ff3f
000000f0: 9d9b 428d 088f 3c40 0f51 cae1 1bd7 a63f
00000100: 107f efcd ce69 d03f 9c05 3035 0cfc c4bf
00000110: 3e66 82f9 bda4 283e 2067 6b47 9572 ff3f
00000120: c893 3fba 8d8f 3b40 3f09 f6e0 64d3 a63f
00000130: 88ff c6b6 b591 d03f a7ba 2250 a969 c6bf
00000140: 9bd4 809f 3e65 283e 381f 5411 4458 ff3f
00000150: 984d 78df d725 3c40 c20d e3a2 53cb a63f
00000160: f852 7c85 f883 d03f b462 bda1 e69d c7bf
00000170: 59c3 cf50 7006 283e b8ad fd99 d65a ff3f
00000180: a1b9 9a25 7e25 3c40 229b 14bb 94ba a63f
00000190: 8c5f aab3 4580 d03f fb84 c6ef a384 ccbf
000001a0: 77cc 226d 627e 263e 1374 d5f9 ad48 ff3f
000001b0: a1b9 9a25 7e25 3c40 229b 14bb 94ba a63f
000001c0: 8c5f aab3 4580 d03f fb84 c6ef a384 ccbf
000001d0: 77cc 226d 627e 263e 1374 d5f9 ad48 ff3f
000001e0: b160 8962 2063 3d40 ae75 19e3 93c3 a63f
000001f0: 1480 9c38 8d54 d03f 263d 1b1c 2d31 cdbf
00000200: 8a1e 1289 2a3a 263e 6e58 943b 8b51 ff3f
00000210: d589 1005 626c 3b40 f89b a819 27ab a63f
00000220: c517 32d0 509e d03f eb8c af20 0bc7 d0bf
00000230: a6ed ccbf b623 253e 24c9 eaa3 781c ff3f
00000240: 4a0d d931 a706 3940 813c 633a 4283 a63f
00000250: df5c 44ae 3df2 d03f c635 dd7d d272 d2bf
00000260: 88f6 ab69 cc57 243e 03a3 086a 9fcc fe3f
00000270: 4a0d d931 a706 3940 813c 633a 4283 a63f
00000280: df5c 44ae 3df2 d03f c635 dd7d d272 d2bf
00000290: 88f6 ab69 cc57 243e 03a3 086a 9fcc fe3f
000002a0: a549 3ae9 d45c 3740 8330 1096 b969 a63f
000002b0: ed45 0025 e828 d13f 616e 404c 0517 d6bf
000002c0: 21eb a50d b745 223e f88f 07c3 8591 fe3f
000002d0: 721f 2f60 ef27 3640 5a9f f5c5 cc53 a63f
000002e0: d61d 167c 0c55 d13f 7d2b 22aa a572 dabf
000002f0: 9c08 3d95 08b7 1f3e 46a2 d255 8572 fe3f
00000300: 1268 48b0 5425 3440 d0dd 4db8 1a4e a63f
00000310: 1ad9 958d 4fa2 d13f 7b32 cb85 dd6b ddbf
00000320: 6fd4 92fb a9be 1c3e c7a8 6bc9 3f5b fe3f
00000330: 1268 48b0 5425 3440 d0dd 4db8 1a4e a63f
00000340: 1ad9 958d 4fa2 d13f 7b32 cb85 dd6b ddbf
00000350: 6fd4 92fb a9be 1c3e c7a8 6bc9 3f5b fe3f
00000360: 1268 48b0 5425 3440 d0dd 4db8 1a4e a63f
00000370: 1ad9 958d 4fa2 d13f 7b32 cb85 dd6b ddbf
00000380: 6fd4 92fb a9be 1c3e c7a8 6bc9 3f5b fe3f
00000390: 1268 48b0 5425 3440 d0dd 4db8 1a4e a63f
000003a0: 1ad9 958d 4fa2 d13f 7b32 cb85 dd6b ddbf
000003b0: 6fd4 92fb a9be 1c3e c7a8 6bc9 3f5b fe3f
000003c0: 1268 48b0 5425 3440 d0dd 4db8 1a4e a63f
000003d0: 1ad9 958d 4fa2 d13f 7b32 cb85 dd6b ddbf
000003e0: 6fd4 92fb a9be 1c3e c7a8 6bc9 3f5b fe3f
000003f0: 1268 48b0 5425 3440 d0dd 4db8 1a4e a63f
00000400: 1ad9 958d 4fa2 d13f 7b32 cb85 dd6b ddbf
00000410: 6fd4 92fb a9be 1c3e c7a8 6bc9 3f5b fe3f
00000420: 6038 5328 a335 3440 c41c f890 6644 a63f
00000430: 797c 2454 599e d13f d117 7b1e 7d73 ddbf
00000440: 59ae 5561 52b2 1c3e 7951 2039 0247 fe3f
00000450: 6038 5328 a335 3440 c41c f890 6644 a63f
00000460: 797c 2454 599e d13f d117 7b1e 7d73 ddbf
00000470: 59ae 5561 52b2 1c3e 7951 2039 0247 fe3f
00000480: 13c4 8432 86fb 3140 44ac 3b3e 391a a63f
00000490: 26b5 4704 37ee d13f 0721 d823 31a3 e0bf
000004a0: d8c7 e317 51b3 183e 159b b50a 94ec fd3f
000004b0: cbf1 00af 3307 3340 67dc bcd8 fd32 a63f
000004c0: f269 b8b5 14cc d13f 6d39 155e e362 e1bf
000004d0: c171 0b4d d8ef 163e 97a7 86b0 e3fb fd3f
000004e0: 3e2d 478b 3211 3340 09a0 8a6f 8b37 a63f
000004f0: 7297 f2b2 36c9 d13f 6c7b 1abc 8276 e1bf
00000500: 3b3e f9bc 84c5 163e 1bee 2611 86ff fd3f
00000510: 49da 1d76 c0aa 3240 90df 3d33 5120 a63f
00000520: 567b 0a7a 0cda d13f c253 424a 73bf e2bf
00000530: d139 001a faca 133e c607 0810 61de fd3f
00000540: fe7d 1309 5b40 3340 5a60 cae5 e911 a63f
00000550: 52c5 b510 2bc0 d13f cdd6 2599 367a e3bf
00000560: b2a2 0a00 fee0 113e 9206 83ac 3edc fd3f
00000570: a606 44ef 01d3 3240 9391 fa34 be0c a63f
00000580: 9f72 4ffa 9ed0 d13f d85f 2f4b 5aa8 e4bf
00000590: ba71 dcc2 8758 0e3e 64b4 c694 a4d4 fd3f
000005a0: a606 44ef 01d3 3240 9391 fa34 be0c a63f
000005b0: 9f72 4ffa 9ed0 d13f d85f 2f4b 5aa8 e4bf
000005c0: ba71 dcc2 8758 0e3e 64b4 c694 a4d4 fd3f
000005d0: a606 44ef 01d3 3240 9391 fa34 be0c a63f
000005e0: 9f72 4ffa 9ed0 d13f d85f 2f4b 5aa8 e4bf
000005f0: ba71 dcc2 8758 0e3e 64b4 c694 a4d4 fd3f
00000600: 85bc 0cd2 baab 3140 502c 5988 5002 a63f
00000610: f341 eb10 24f1 d13f 0e61 9534 bd0d e5bf
00000620: 9640 bbd4 d1a8 0c3e 1281 446f b0bc fd3f
00000630: 09da e3d6 f304 3240 5a0a 2d00 a7f1 a53f
00000640: 2d27 b05c c0df d13f 076c 17a6 3421 e6bf
00000650: 9e72 0238 6922 073e 662e 0b86 5c9e fd3f
00000660: e6d6 a8a4 2a3d 3240 566a dc01 8bfa a53f
00000670: a9d7 f46e 1cda d13f 6018 bf1f 427a e7bf
00000680: 02b1 6a99 c4ce 003e 1c7a 1c8f 6ec3 fd3f
00000690: bf0c b0d8 c390 3140 f218 3716 91d8 a53f
000006a0: 7a46 6047 e3ff d13f 0cff 2be2 87d6 e8bf
000006b0: 7c8a bd65 43ee f43d f969 bd97 bca7 fd3f
000006c0: bf0c b0d8 c390 3140 f218 3716 91d8 a53f
000006d0: 7a46 6047 e3ff d13f 0cff 2be2 87d6 e8bf
000006e0: 7c8a bd65 43ee f43d f969 bd97 bca7 fd3f
000006f0: bf0c b0d8 c390 3140 f218 3716 91d8 a53f
00000700: 7a46 6047 e3ff d13f 0cff 2be2 87d6 e8bf
00000710: 7c8a bd65 43ee f43d f969 bd97 bca7 fd3f
00000720: bf0c b0d8 c390 3140 f218 3716 91d8 a53f
00000730: 7a46 6047 e3ff d13f 0cff 2be2 87d6 e8bf
00000740: 7c8a bd65 43ee f43d f969 bd97 bca7 fd3f
00000750: bf0c b0d8 c390 3140 f218 3716 91d8 a53f
00000760: 7a46 6047 e3ff d13f 0cff 2be2 87d6 e8bf
00000770: 7c8a bd65 43ee f43d f969 bd97 bca7 fd3f
00000780: bf0c b0d8 c390 3140 f218 3716 91d8 a53f
00000790: 7a46 6047 e3ff d13f 0cff 2be2 87d6 e8bf
000007a0: 7c8a bd65 43ee f43d f969 bd97 bca7 fd3f
000007b0: bf0c b0d8 c390 3140 f218 3716 91d8 a53f
000007c0: 7a46 6047 e3ff d13f 0cff 2be2 87d6 e8bf
000007d0: 7c8a bd65 43ee f43d f969 bd97 bca7 fd3f
000007e0: ca2d cf51 050d 3040 0845 08c7 d9c1 a53f
000007f0: 730a 6ba7 ae35 d23f 7454 d437 9213 ebbf
30.21057294105635 0.04471072413728472 0.2528980492848235 -0.0010216573878629367 3.5556362019908243e-09 1.9807843208111142 29.619051217018225 0.0447051634734979
0.2542248151740081 -0.06065441509027921 3.297823587781256e-09 1.9799246936138881 28.812391228357935 0.044532025774837926 0.25581454248838403 -0.11108638725614368
3.0893396915915386e-09 1.9681032400134746 28.812391228357935 0.044532025774837926 0.25581454248838403 -0.11108638725614368 3.0893396915915386e-09 1.9681032400134746
28.537112481831183 0.044513644959795116 0.25676167073738 -0.1520250100757053 2.9186050206903867e-09 1.9622615674533201 28.558724240075765 0.04460990077237358
0.2564579974259553 -0.16394188496637419 2.8688837521535268e-09 1.9654743947816726 27.560756340524478 0.04458155866724888 0.2588934216437271 -0.17509952938913395
2.8400084471860994e-09 1.9590492894075862 28.14782520949447 0.04452000964513615 0.25805485759455804 -0.18450625321817926 2.796895720660709e-09 1.959677316214636
28.14645609881848 0.04439224990556158 0.25782911820851306 -0.22279786308084923 2.6186100866571776e-09 1.9552440413601786 28.14645609881848 0.04439224990556158
0.25782911820851306 -0.22279786308084923 2.6186100866571776e-09 1.9552440413601786 29.387212904490926 0.04446088931284052 0.2551606228680623 -0.22806323883421803
2.587587984650825e-09 1.9574081733058182 27.423370663201997 0.04427454174247453 0.25966282207116037 -0.26214864913909136 2.460962543474757e-09 1.944450989056869
25.025988688937367 0.04397017443408747 0.2647852136446555 -0.28825819293419064 2.368232566105983e-09 1.9249567167227617 25.025988688937367 0.04397017443408747
0.2647852136446555 -0.28825819293419064 2.368232566105983e-09 1.9249567167227617 23.36262376473464 0.04377536732508338 0.26812175382028053 -0.3451550717015604
2.127178528100453e-09 1.9105279558507373 22.155996333603476 0.043608092465375406 0.270815964868658 -0.4132475053271987 1.8460544941257145e-09 1.9029591896488838
20.145823495557188 0.04356463908964836 0.2755316622418761 -0.45970857682986094 1.6731664788853309e-09 1.8972776287069324 20.145823495557188 0.04356463908964836
0.2755316622418761 -0.45970857682986094 1.6731664788853309e-09 1.8972776287069324 20.145823495557188 0.04356463908964836 0.2755316622418761 -0.45970857682986094
1.6731664788853309e-09 1.8972776287069324 20.145823495557188 0.04356463908964836 0.2755316622418761 -0.45970857682986094 1.6731664788853309e-09 1.8972776287069324
20.145823495557188 0.04356463908964836 0.2755316622418761 -0.45970857682986094 1.6731664788853309e-09 1.8972776287069324 20.145823495557188 0.04356463908964836
0.2755316622418761 -0.45970857682986094 1.6731664788853309e-09 1.8972776287069324 20.209520836179195 0.04349060554164333 0.2752898523048724 -0.4601738736786248
1.6703601881339472e-09 1.8923361045354723 20.209520836179195 0.04349060554164333 0.2752898523048724 -0.4601738736786248 1.6703601881339472e-09 1.8923361045354723
17.982516438878587 0.04316882023507465 0.28016448419551165 -0.5199208927233777 1.4377557751638352e-09 1.8702583711944432 19.028132379274933 0.04335778494572012
0.2780811094868617 -0.5433213079029834 1.3351029623683858e-09 1.8739964385553998 19.067177491070872 0.043392522207170776 0.2779061076674828 -0.5457166360755372
1.3254790493439008e-09 1.874883715629841 18.6669992277987 0.04321531057843153 0.2789336387449358 -0.5858704042790281 1.1520971746090202e-09 1.8667917848801934
19.251389090784862 0.0431054203992864 0.2773540175613408 -0.6086686125915662 1.040687536290972e-09 1.866270707964223 18.824248270137694 0.04306597134317083
0.2783582157551709 -0.6455508678873185 8.831796454949857e-10 1.864414769322388 18.824248270137694 0.04306597134317083 0.2783582157551709 -0.6455508678873185
8.831796454949857e-10 1.864414769322388 18.824248270137694 0.04306597134317083 0.2783582157551709 -0.6455508678873185 8.831796454949857e-10 1.864414769322388
17.670819404706453 0.04298640884788851 0.28034307148212106 -0.6579271342298243 8.340998252008816e-10 1.8585666986837777 18.019345694187027 0.042859286090352014
0.27928170253345536 -0.6915534252142387 6.733001795155455e-10 1.8511624561387179 18.238931933613365 0.04292711637227302 0.2789374431189296 -0.7336741085098417
4.891680834991839e-10 1.860212859180712 17.565488379460245 0.04266789814168871 0.28124315233535635 -0.7761878411692762 3.045820034904646e-10 1.8534513404216553
17.565488379460245 0.04266789814168871 0.28124315233535635 -0.7761878411692762 3.045820034904646e-10 1.8534513404216553 17.565488379460245 0.04266789814168871
0.28124315233535635 -0.7761878411692762 3.045820034904646e-10 1.8534513404216553 17.565488379460245 0.04266789814168871 0.28124315233535635 -0.7761878411692762
3.045820034904646e-10 1.8534513404216553 17.565488379460245 0.04266789814168871 0.28124315233535635 -0.7761878411692762 3.045820034904646e-10 1.8534513404216553
17.565488379460245 0.04266789814168871 0.28124315233535635 -0.7761878411692762 3.045820034904646e-10 1.8534513404216553 17.565488379460245 0.04266789814168871
0.28124315233535635 -0.7761878411692762 3.045820034904646e-10 1.8534513404216553 16.050862420159127 0.042494588418899026 0.28452650403429586 -0.8461390581529842
