pset05/mcmc/mcmcdata/2022-10-20T21:06:24.799180_params.npy (npy, 48176 bytes, 1 tensors)

array f8 [1001, 6]
30.21057294105635 0.04471072413728472 0.2528980492848235 -0.0010216573878629367 3.5556362019908243e-09 1.9807843208111142 30.29079255124682 0.044725384086580965
0.25268058083599526 -0.03685242904619499 3.406083534746257e-09 1.9770357429930232 29.279233449525627 0.04473052678719214 0.25454921087382576 -0.04894022519104507
3.3593449922062084e-09 1.9743141655137548 29.279233449525627 0.04473052678719214 0.25454921087382576 -0.04894022519104507 3.3593449922062084e-09 1.9743141655137548
29.279233449525627 0.04473052678719214 0.25454921087382576 -0.04894022519104507 3.3593449922062084e-09 1.9743141655137548 27.369251481234105 0.044422725391340075
0.2581588953255986 -0.11860308342316374 3.068422597062034e-09 1.9551976642094204 27.369251481234105 0.044422725391340075 0.2581588953255986 -0.11860308342316374
3.068422597062034e-09 1.9551976642094204 24.361585874835807 0.044017295068221045 0.2642245738869289 -0.18926486875991438 2.7808824245667393e-09 1.930565295413788
24.800865932105577 0.043971265749494406 0.26272068238744883 -0.2066003441348525 2.693141605498458e-09 1.9292655479375687 24.800865932105577 0.043971265749494406
0.26272068238744883 -0.2066003441348525 2.693141605498458e-09 1.9292655479375687 23.460967153715934 0.04382197242227019 0.26555916390432077 -0.22299501655524792
2.6242587696166004e-09 1.9244073240146218 22.783426079469855 0.04369344503976696 0.267136502866415 -0.226652781418091 2.613768419481745e-09 1.9193621851620932
22.783426079469855 0.04369344503976696 0.267136502866415 -0.226652781418091 2.613768419481745e-09 1.9193621851620932 22.783426079469855 0.04369344503976696
0.267136502866415 -0.226652781418091 2.613768419481745e-09 1.9193621851620932 22.783426079469855 0.04369344503976696 0.267136502866415 -0.226652781418091
2.613768419481745e-09 1.9193621851620932 21.14882995169203 0.043398090528760605 0.2708049281498187 -0.25223355244992407 2.5073189061449887e-09 1.9087488564150643
21.14882995169203 0.043398090528760605 0.2708049281498187 -0.25223355244992407 2.5073189061449887e-09 1.9087488564150643 21.14882995169203 0.043398090528760605
0.2708049281498187 -0.25223355244992407 2.5073189061449887e-09 1.9087488564150643 21.14882995169203 0.043398090528760605 0.2708049281498187 -0.25223355244992407
2.5073189061449887e-09 1.9087488564150643 21.14882995169203 0.043398090528760605 0.2708049281498187 -0.25223355244992407 2.5073189061449887e-09 1.9087488564150643
21.14882995169203 0.043398090528760605 0.2708049281498187 -0.25223355244992407 2.5073189061449887e-09 1.9087488564150643 21.14882995169203 0.043398090528760605
0.2708049281498187 -0.25223355244992407 2.5073189061449887e-09 1.9087488564150643 21.14882995169203 0.043398090528760605 0.2708049281498187 -0.25223355244992407
2.5073189061449887e-09 1.9087488564150643 21.11543333178104 0.04334214546837581 0.27050235040065596 -0.2534071985627353 2.4973045005155794e-09 1.902718265066551
21.23217059601479 0.043363030625093356 0.2697882959358397 -0.25795720110446435 2.4762325087327804e-09 1.8996399322510207 21.016893283744388 0.04329291264174145
0.27044676817143626 -0.2574783113300716 2.4802984416460703e-09 1.8949544336075537 20.383763624337007 0.04327098888054192 0.27157326350286376 -0.2643675427552955
2.455048126856333e-09 1.8920732645957115 20.383763624337007 0.04327098888054192 0.27157326350286376 -0.2643675427552955 2.455048126856333e-09 1.8920732645957115
19.654414618551588 0.04318215135260184 0.2730039601140537 -0.32375144055834887 2.1969503073767186e-09 1.8839067200804738 19.870285927928776 0.043017911684430955
0.2722688297831593 -0.33455215185650466 2.138848152942936e-09 1.875538677495421 19.870285927928776 0.043017911684430955 0.2722688297831593 -0.33455215185650466
2.138848152942936e-09 1.875538677495421 20.552959339728687 0.043005161951536496 0.27040323085576173 -0.3597961766500053 2.017159365982278e-09 1.8752763037912354
20.55764409284067 0.04294813931571813 0.27044478187500465 -0.4291019775363978 1.7077612356177837e-09 1.8738099021682133 20.272508529078163 0.042823683301963525
0.27074926688600404 -0.44617151539409383 1.6254540130231149e-09 1.8707543083542792 20.272508529078163 0.042823683301963525 0.27074926688600404 -0.44617151539409383
1.6254540130231149e-09 1.8707543083542792 19.431113337600713 0.04273435531491578 0.27241355369058035 -0.48131818863995807 1.4840274908823582e-09 1.859594805198539
19.431113337600713 0.04273435531491578 0.27241355369058035 -0.48131818863995807 1.4840274908823582e-09 1.859594805198539 19.431113337600713 0.04273435531491578
0.27241355369058035 -0.48131818863995807 1.4840274908823582e-09 1.859594805198539 18.28561167152289 0.04264148564316793 0.2748515204593248 -0.5031655089578206
1.4043771247471846e-09 1.8506630556973043 16.5036549513309 0.042426395310113836 0.27869717064105093 -0.5253843267591733 1.3166429342707074e-09 1.8406280529583632
15.719550699175535 0.04230638670726868 0.2798634821829296 -0.5394929180867474 1.2574313631364283e-09 1.8343340470905996 15.719550699175535 0.04230638670726868
0.2798634821829296 -0.5394929180867474 1.2574313631364283e-09 1.8343340470905996 15.719550699175535 0.04230638670726868 0.2798634821829296 -0.5394929180867474
00000000: 7242 b71b e835 3e40 9075 e6f3 52e4 a63f
00000010: 02a2 b94c 7b2f d03f 58bf 6344 24bd 50bf
00000020: c9ae fa3b ed8a 2e3e 4f03 65e6 4ab1 ff3f
00000030: 8786 7161 714a 3e40 0be3 e7db 3ee6 a63f
00000040: b397 c12b eb2b d03f ad29 1053 52de a2bf
00000050: c847 3691 0e42 2d3e 7bd9 323b f0a1 ff3f
00000060: 6ea9 e5d7 7b47 3d40 9020 5e6b ebe6 a63f
00000070: 7e3e fbc5 884a d03f 580f 4f75 b10e a9bf
00000080: 2d0d 5d1b 47db 2c3e e693 4e73 ca96 ff3f
00000090: 6ea9 e5d7 7b47 3d40 9020 5e6b ebe6 a63f
000000a0: 7e3e fbc5 884a d03f 580f 4f75 b10e a9bf
000000b0: 2d0d 5d1b 47db 2c3e e693 4e73 ca96 ff3f
000000c0: 6ea9 e5d7 7b47 3d40 9020 5e6b ebe6 a63f
000000d0: 7e3e fbc5 884a d03f 580f 4f75 b10e a9bf
000000e0: 2d0d 5d1b 47db 2c3e e693 4e73 ca96 ff3f
000000f0: 69e6 db43 875e 3b40 a18e 8251 93be a63f
00000100: 6313 26e3 ac85 d03f 01db 818c c55c bebf
00000110: 29fb ab5b 885b 2a3e baeb 8f58 7d48 ff3f
00000120: 69e6 db43 875e 3b40 a18e 8251 93be a63f
00000130: 6313 26e3 ac85 d03f 01db 818c c55c bebf
00000140: 29fb ab5b 885b 2a3e baeb 8f58 7d48 ff3f
00000150: 871d 53e4 905c 3840 2f83 8d55 6f89 a63f
00000160: 9435 e92f 0ee9 d03f 2283 cdca d439 c8bf
00000170: 7d1e a2a1 39e3 273e 4b84 696f 98e3 fe3f
00000180: bfdf ba8c 05cd 3840 0232 b7d8 6683 a63f
00000190: b48f b568 6ad0 d03f 9065 b34c e171 cabf
000001a0: 53c7 fdf0 4722 273e e20f 1b8d 45de fe3f
000001b0: bfdf ba8c 05cd 3840 0232 b7d8 6683 a63f
000001c0: b48f b568 6ad0 d03f 9065 b34c e171 cabf
000001d0: 53c7 fdf0 4722 273e e20f 1b8d 45de fe3f
000001e0: 7abd 81f1 0176 3740 06bb cc64 d56f a63f
000001f0: 7ed1 07dd ebfe d03f 614c a3c7 198b ccbf
00000200: 569c 245a ce8a 263e f835 8d55 5fca fe3f
00000210: 1228 8e9c 8ec8 3640 77a1 fdba fc5e a63f
00000220: 9042 d8b3 c318 d13f 497b de55 f502 cdbf
00000230: 853f 5ccf bc73 263e 6034 671f b5b5 fe3f
00000240: 1228 8e9c 8ec8 3640 77a1 fdba fc5e a63f
00000250: 9042 d8b3 c318 d13f 497b de55 f502 cdbf
00000260: 853f 5ccf bc73 263e 6034 671f b5b5 fe3f
00000270: 1228 8e9c 8ec8 3640 77a1 fdba fc5e a63f
00000280: 9042 d8b3 c318 d13f 497b de55 f502 cdbf
00000290: 853f 5ccf bc73 263e 6034 671f b5b5 fe3f
000002a0: 1228 8e9c 8ec8 3640 77a1 fdba fc5e a63f
000002b0: 9042 d8b3 c318 d13f 497b de55 f502 cdbf
000002c0: 853f 5ccf bc73 263e 6034 671f b5b5 fe3f
000002d0: ba2e 3fb8 1926 3540 aa4b 0f47 4638 a63f
000002e0: 46f1 7f31 de54 d13f 1a7c ae32 9824 d0bf
000002f0: f4a8 b90f a789 253e 1848 a93d 3c8a fe3f
00000300: ba2e 3fb8 1926 3540 aa4b 0f47 4638 a63f
00000310: 46f1 7f31 de54 d13f 1a7c ae32 9824 d0bf
00000320: f4a8 b90f a789 253e 1848 a93d 3c8a fe3f
00000330: ba2e 3fb8 1926 3540 aa4b 0f47 4638 a63f
00000340: 46f1 7f31 de54 d13f 1a7c ae32 9824 d0bf
00000350: f4a8 b90f a789 253e 1848 a93d 3c8a fe3f
00000360: ba2e 3fb8 1926 3540 aa4b 0f47 4638 a63f
00000370: 46f1 7f31 de54 d13f 1a7c ae32 9824 d0bf
00000380: f4a8 b90f a789 253e 1848 a93d 3c8a fe3f
00000390: ba2e 3fb8 1926 3540 aa4b 0f47 4638 a63f
000003a0: 46f1 7f31 de54 d13f 1a7c ae32 9824 d0bf
000003b0: f4a8 b90f a789 253e 1848 a93d 3c8a fe3f
000003c0: ba2e 3fb8 1926 3540 aa4b 0f47 4638 a63f
000003d0: 46f1 7f31 de54 d13f 1a7c ae32 9824 d0bf
000003e0: f4a8 b90f a789 253e 1848 a93d 3c8a fe3f
000003f0: ba2e 3fb8 1926 3540 aa4b 0f47 4638 a63f
00000400: 46f1 7f31 de54 d13f 1a7c ae32 9824 d0bf
00000410: f4a8 b90f a789 253e 1848 a93d 3c8a fe3f
00000420: ba2e 3fb8 1926 3540 aa4b 0f47 4638 a63f
00000430: 46f1 7f31 de54 d13f 1a7c ae32 9824 d0bf
00000440: f4a8 b90f a789 253e 1848 a93d 3c8a fe3f
00000450: 2ede f009 8d1d 3540 e479 a612 f130 a63f
00000460: 9690 1d17 e94f d13f a077 99d3 d237 d0bf
00000470: 9644 c673 a173 253e 3467 1fb5 8871 fe3f
00000480: f2f9 3c88 6f3b 3540 3bcb c7dc ad33 a63f
00000490: 03d5 f820 3644 d13f 47ba a0eb 5e82 d0bf
000004a0: cc2f b7f9 4a45 253e c319 73d7 ec64 fe3f
000004b0: 4634 451e 5304 3540 47c5 e317 7d2a a63f
000004c0: cdbb 26f6 ff4e d13f bce2 a54f 867a d0bf
000004d0: 6eee 66e4 3b4e 253e 0813 7cbd bb51 fe3f
000004e0: 00ec 3755 3e62 3440 2f0b 3774 9d27 a63f
000004f0: 5b9e 4dd3 7461 d13f 0a81 90d7 65eb d0bf
00000500: 8184 893a b516 253e 4c31 919d ee45 fe3f
00000510: 00ec 3755 3e62 3440 2f0b 3774 9d27 a63f
00000520: 5b9e 4dd3 7461 d13f 0a81 90d7 65eb d0bf
00000530: 8184 893a b516 253e 4c31 919d ee45 fe3f
00000540: 11b4 68b7 87a7 3340 4023 a98f f81b a63f
00000550: 0893 179a e578 d13f a5c8 4ef6 57b8 d4bf
00000560: f6ab bd12 25df 223e 3b5d 775f 7b24 fe3f
00000570: 849f fe0e cbde 3340 8558 a797 7106 a63f
00000580: 15e3 e83d da6c d13f 60ed c16d 4d69 d5bf
00000590: bdba d377 605f 223e 639d 23d8 3402 fe3f
000005a0: 849f fe0e cbde 3340 8558 a797 7106 a63f
000005b0: 15e3 e83d da6c d13f 60ed c16d 4d69 d5bf
000005c0: bdba d377 605f 223e 639d 23d8 3402 fe3f
000005d0: 0827 48be 8e8d 3440 7335 48c8 c504 a63f
000005e0: eb86 505a 494e d13f d401 fc8a e606 d7bf
000005f0: 9652 68c5 c753 213e 31f4 bbb9 2101 fe3f
00000600: ea8e 65c3 c18e 3440 8af3 916b 4cfd a53f
00000610: 58ba 61a1 f74e d13f 80bc 0a24 6876 dbbf
00000620: e4c5 5137 d056 1d3e 27bc 8b17 20fb fd3f
00000630: 9345 741e c345 3440 6269 8d5e fcec a53f
00000640: 4b3f acbb f453 d13f aa8f c1f8 128e dcbf
00000650: 4549 9785 d2ec 1b3e 42b9 d311 9cee fd3f
00000660: 9345 741e c345 3440 6269 8d5e fcec a53f
00000670: 4b3f acbb f453 d13f aa8f c1f8 128e dcbf
00000680: 4549 9785 d2ec 1b3e 42b9 d311 9cee fd3f
00000690: 4edd 9571 5d6e 3340 a385 fc04 47e1 a53f
000006a0: c9a4 0542 396f d13f d56d cbcd eacd debf
000006b0: f29f ea69 d27e 193e 3a3a 827b e6c0 fd3f
000006c0: 4edd 9571 5d6e 3340 a385 fc04 47e1 a53f
000006d0: c9a4 0542 396f d13f d56d cbcd eacd debf
000006e0: f29f ea69 d27e 193e 3a3a 827b e6c0 fd3f
000006f0: 4edd 9571 5d6e 3340 a385 fc04 47e1 a53f
00000700: c9a4 0542 396f d13f d56d cbcd eacd debf
00000710: f29f ea69 d27e 193e 3a3a 827b e6c0 fd3f
00000720: f58b b4d8 1d49 3240 ee9c 94d4 1ad5 a53f
00000730: 363c e8d4 2a97 d13f 7e5e ae8d ee19 e0bf
00000740: cabb ec12 8420 183e 632a 42dd 509c fd3f
00000750: 486f e887 ef80 3040 c12e b098 e9b8 a53f
00000760: e206 59a8 2cd6 d13f 405f a8ca f2cf e0bf
00000770: 85cc 3328 a89e 163e b6e6 b866 3673 fd3f
00000780: b48b 01f3 6870 2f40 eba8 a3c6 2ea9 a53f
00000790: cd80 d485 48e9 d13f e265 f3a6 8643 e1bf
000007a0: 3c22 c8da 3d9a 153e 5e18 63a8 6e59 fd3f
000007b0: b48b 01f3 6870 2f40 eba8 a3c6 2ea9 a53f
000007c0: cd80 d485 48e9 d13f e265 f3a6 8643 e1bf
000007d0: 3c22 c8da 3d9a 153e 5e18 63a8 6e59 fd3f
000007e0: b48b 01f3 6870 2f40 eba8 a3c6 2ea9 a53f
000007f0: cd80 d485 48e9 d13f e265 f3a6 8643 e1bf
