pset05/mcmc/mcmcdata/2022-10-20T23:19:08.365026_params.npy (npy, 48176 bytes, 1 tensors)

array f8 [1001, 6]
000000 72 42 b7 1b e8 35 3e 40 90 75 e6 f3 52 e4 a6 3f
       30.21057294105635 0.04471072413728472
000010 02 a2 b9 4c 7b 2f d0 3f 58 bf 63 44 24 bd 50 bf
       0.2528980492848235 -0.0010216573878629367
000020 c9 ae fa 3b ed 8a 2e 3e 4f 03 65 e6 4a b1 ff 3f
       3.5556362019908243e-09 1.9807843208111142
000030 5c a2 d0 03 72 75 3e 40 f1 e8 28 c4 5a f1 a6 3f
       30.458770979343498 0.0448101391270529
000040 64 6d ce 90 ab 24 d0 3f ae 08 2c 89 ee 43 90 3f
       0.2522381700634553 0.015884139177622707
000050 52 50 6e 92 29 23 2f 3e 04 ae 18 9c 48 d4 ff 3f
       3.624864980614991e-09 1.9893270585552054
000060 12 e1 4e d9 dd 1d 3f 40 93 04 93 83 fa e2 a6 3f
       31.11666639495622 0.04470045906192257
000070 9b 27 9b 42 67 fd cf 3f b2 01 8a ea ab b8 9a 3f
       0.24992075683831846 0.026095091047410875
000080 42 01 2d 1c 34 5f 2f 3e be 72 6f 5c 25 cb ff 3f
       3.652168541033732e-09 1.9870961771731994
000090 12 6f 33 65 9a b8 3d 40 07 64 0a d7 80 bd a6 3f
       29.721105885560128 0.044414545297691226
0000a0 ab ab 2f e8 e6 32 d0 3f b4 b4 1c f7 e7 72 94 bf
       0.2531068103259552 -0.019969582040336234
0000b0 14 64 1b 70 0d b7 2d 3e f8 b6 41 b1 7a 98 ff 3f
       3.4592869687307946e-09 1.9747263835992594
0000c0 5f a7 b8 f5 bc 76 3e 40 38 c4 cb c5 4f cf a6 3f
       30.46382079847478 0.044550412077918045
0000d0 9a 68 c7 e9 0a 25 d0 3f 53 43 63 e5 b7 43 9b bf
       0.25226090269064516 -0.026625512481419488
0000e0 aa 2f 5b b4 29 80 2d 3e b8 a3 46 67 f9 b7 ff 3f
       3.4343260759975017e-09 1.9824155840126263
0000f0 e4 86 94 67 9c 63 3c 40 4c c7 f2 e9 78 a8 a6 3f
       28.38910529495378 0.04425409179510939
000100 7f 5c d9 3d 22 5c d0 3f fa 04 e1 06 2b 19 b9 bf
       0.25562339820812235 -0.09804028432792569
000110 87 37 f7 a3 63 cb 2a 3e 23 32 1c 55 c4 7f ff 3f
       3.119289076797892e-09 1.9686930966009946
000120 e4 86 94 67 9c 63 3c 40 4c c7 f2 e9 78 a8 a6 3f
       28.38910529495378 0.04425409179510939
000130 7f 5c d9 3d 22 5c d0 3f fa 04 e1 06 2b 19 b9 bf
       0.25562339820812235 -0.09804028432792569
000140 87 37 f7 a3 63 cb 2a 3e 23 32 1c 55 c4 7f ff 3f
       3.119289076797892e-09 1.9686930966009946
000150 f7 95 c0 21 1b ff 3a 40 58 b6 91 f7 f7 87 a6 3f
       26.99650774909784 0.044006108256195275
000160 46 47 5e b9 66 88 d0 3f f4 b9 41 47 fe 13 c9 bf
       0.2583252725827275 -0.19592264632542788
000170 f6 a4 a2 b6 d3 40 27 3e 1f 83 0f 32 c4 36 ff 3f
       2.707032311056523e-09 1.9508707004062626
000180 f7 95 c0 21 1b ff 3a 40 58 b6 91 f7 f7 87 a6 3f
       26.99650774909784 0.044006108256195275
000190 46 47 5e b9 66 88 d0 3f f4 b9 41 47 fe 13 c9 bf
       0.2583252725827275 -0.19592264632542788
0001a0 f6 a4 a2 b6 d3 40 27 3e 1f 83 0f 32 c4 36 ff 3f
       2.707032311056523e-09 1.9508707004062626
0001b0 2f 53 94 55 23 83 39 40 69 38 a3 3f 46 54 a6 3f
       25.512257908546584 0.043611712711581437
0001c0 56 16 df 5b 31 b1 d0 3f f6 f8 c3 97 10 1c d1 bf
       0.26081499072856695 -0.2673379404149182
0001d0 af 1e ce f9 31 8d 24 3e a9 92 8d d7 da dc fe 3f
       2.3925145878702904e-09 1.9289196414985474
0001e0 10 82 bc 4a b9 3d 39 40 27 64 97 a3 59 53 a6 3f
       25.241108580610728 0.04360466119732847
0001f0 d5 16 50 40 5a b5 d0 3f f1 c2 42 ea 9b 5f d1 bf
       0.2610688808493767 -0.2714605128958701
000200 f5 fc 6a 08 c1 6a 24 3e ca 00 cf 1a 90 cc fe 3f
       2.3768525510137356e-09 1.9249421164714016
000210 2d 68 98 f0 18 ae 38 40 b6 51 60 95 4f 4f a6 3f
       24.68006805153725 0.043573843941121224
000220 86 8a 98 bd 49 cb d0 3f 61 af 7a 4c c5 72 d2 bf
       0.26240771784993233 -0.2882550474994244
000230 8e 33 0e 8e 53 e4 23 3e 23 8b 45 bc a9 c4 fe 3f
       2.315721934039409e-09 1.92301343482604
000240 65 ea d2 a2 78 88 38 40 d3 1f 31 49 5a 47 a6 3f
       24.53309075974757 0.04351312774139129
000250 07 06 a5 75 ee c8 d0 3f 80 67 95 9f 1c d2 d3 bf
       0.26226388443691956 -0.3096992071565339
000260 b1 ce 87 b7 3d 0f 23 3e 67 d8 d2 84 aa ba fe 3f
       2.218821956240913e-09 1.9205727756903117
000270 d0 cc 56 32 c0 68 3a 40 f2 fc 10 53 ac 61 a6 3f
       26.40918268794195 0.043713936939178924
000280 6f 63 81 e6 49 86 d0 3f 2e 3b dd 79 ed ea d4 bf
       0.2581963301686789 -0.3268388452606129
000290 d0 98 01 60 dc 3e 22 3e ef 11 32 aa 64 e5 fe 3f
       2.124061593321555e-09 1.9310042045846065
0002a0 d0 cc 56 32 c0 68 3a 40 f2 fc 10 53 ac 61 a6 3f
       26.40918268794195 0.043713936939178924
0002b0 6f 63 81 e6 49 86 d0 3f 2e 3b dd 79 ed ea d4 bf
       0.2581963301686789 -0.3268388452606129
0002c0 d0 98 01 60 dc 3e 22 3e ef 11 32 aa 64 e5 fe 3f
       2.124061593321555e-09 1.9310042045846065
0002d0 2b 64 49 5d fc 54 38 40 da d7 50 b8 cd 33 a6 3f
       24.331975775163453 0.04336398005436566
0002e0 0c ec 39 49 3b c8 d0 3f 7a 0a b7 33 ab 2c d9 bf
       0.26222116614343416 -0.3933513646153767
0002f0 20 88 a4 79 ba 93 1f 3e b9 51 10 1f ba 9f fe 3f
       1.838027041826611e-09 1.9139958585193269
000300 2b 64 49 5d fc 54 38 40 da d7 50 b8 cd 33 a6 3f
       24.331975775163453 0.04336398005436566
000310 0c ec 39 49 3b c8 d0 3f 7a 0a b7 33 ab 2c d9 bf
       0.26222116614343416 -0.3933513646153767
000320 20 88 a4 79 ba 93 1f 3e b9 51 10 1f ba 9f fe 3f
       1.838027041826611e-09 1.9139958585193269
000330 2b 64 49 5d fc 54 38 40 da d7 50 b8 cd 33 a6 3f
       24.331975775163453 0.04336398005436566
000340 0c ec 39 49 3b c8 d0 3f 7a 0a b7 33 ab 2c d9 bf
       0.26222116614343416 -0.3933513646153767
000350 20 88 a4 79 ba 93 1f 3e b9 51 10 1f ba 9f fe 3f
       1.838027041826611e-09 1.9139958585193269
000360 2b 64 49 5d fc 54 38 40 da d7 50 b8 cd 33 a6 3f
       24.331975775163453 0.04336398005436566
000370 0c ec 39 49 3b c8 d0 3f 7a 0a b7 33 ab 2c d9 bf
       0.26222116614343416 -0.3933513646153767
000380 20 88 a4 79 ba 93 1f 3e b9 51 10 1f ba 9f fe 3f
       1.838027041826611e-09 1.9139958585193269
000390 c4 cb 7b 40 43 07 38 40 15 b8 47 f4 7b 1e a6 3f
       24.028369932387946 0.04320132595954377
0003a0 31 68 1b 3b 17 dd d0 3f 94 56 bb 7a 92 b7 dc bf
       0.2634943082063073 -0.4487043570091853
0003b0 99 4d 14 55 df 8c 1b 3e b9 57 ba e6 12 80 fe 3f
       1.603637518191415e-09 1.9062680256661066
0003c0 76 fd 01 9f 04 56 36 40 5a ea af 1d 6a fc a5 3f
       22.33600801275812 0.04294139492408951
0003d0 0f 2e dc e2 66 18 d1 3f d9 e3 89 b6 ea 8d de bf
       0.2671143737249801 -0.47741191698110935
0003e0 16 e3 69 05 af 80 19 3e a8 59 cd c5 86 62 fe 3f
       1.4844508032991383e-09 1.8990543104788262
0003f0 76 fd 01 9f 04 56 36 40 5a ea af 1d 6a fc a5 3f
       22.33600801275812 0.04294139492408951
000400 0f 2e dc e2 66 18 d1 3f d9 e3 89 b6 ea 8d de bf
       0.2671143737249801 -0.47741191698110935
000410 16 e3 69 05 af 80 19 3e a8 59 cd c5 86 62 fe 3f
       1.4844508032991383e-09 1.8990543104788262
000420 76 fd 01 9f 04 56 36 40 5a ea af 1d 6a fc a5 3f
       22.33600801275812 0.04294139492408951
000430 0f 2e dc e2 66 18 d1 3f d9 e3 89 b6 ea 8d de bf
       0.2671143737249801 -0.47741191698110935
000440 16 e3 69 05 af 80 19 3e a8 59 cd c5 86 62 fe 3f
       1.4844508032991383e-09 1.8990543104788262
000450 76 fd 01 9f 04 56 36 40 5a ea af 1d 6a fc a5 3f
       22.33600801275812 0.04294139492408951
000460 0f 2e dc e2 66 18 d1 3f d9 e3 89 b6 ea 8d de bf
       0.2671143737249801 -0.47741191698110935
000470 16 e3 69 05 af 80 19 3e a8 59 cd c5 86 62 fe 3f
       1.4844508032991383e-09 1.8990543104788262
000480 76 fd 01 9f 04 56 36 40 5a ea af 1d 6a fc a5 3f
       22.33600801275812 0.04294139492408951
000490 0f 2e dc e2 66 18 d1 3f d9 e3 89 b6 ea 8d de bf
       0.2671143737249801 -0.47741191698110935
0004a0 16 e3 69 05 af 80 19 3e a8 59 cd c5 86 62 fe 3f
       1.4844508032991383e-09 1.8990543104788262
0004b0 76 fd 01 9f 04 56 36 40 5a ea af 1d 6a fc a5 3f
       22.33600801275812 0.04294139492408951
0004c0 0f 2e dc e2 66 18 d1 3f d9 e3 89 b6 ea 8d de bf
       0.2671143737249801 -0.47741191698110935
0004d0 16 e3 69 05 af 80 19 3e a8 59 cd c5 86 62 fe 3f
       1.4844508032991383e-09 1.8990543104788262
0004e0 d6 99 ac 82 9f 35 35 40 31 49 0b 29 fd e0 a5 3f
       21.209465186251542 0.04273215414072452
0004f0 11 e9 ec 9c 00 49 d1 3f 09 20 b1 d4 85 05 e1 bf
       0.2700807125544467 -0.5319241670740676
000500 df 68 cc 22 54 94 15 3e e7 73 45 e1 40 3b fe 3f
       1.2560869108671324e-09 1.8894661712322376
000510 d6 99 ac 82 9f 35 35 40 31 49 0b 29 fd e0 a5 3f
       21.209465186251542 0.04273215414072452
000520 11 e9 ec 9c 00 49 d1 3f 09 20 b1 d4 85 05 e1 bf
       0.2700807125544467 -0.5319241670740676
000530 df 68 cc 22 54 94 15 3e e7 73 45 e1 40 3b fe 3f
       1.2560869108671324e-09 1.8894661712322376
000540 b9 b9 d0 e7 aa 9c 36 40 69 97 f1 bd 92 f1 a5 3f
       22.611982811411256 0.04285868233345875
000550 8f 86 61 34 db 11 d1 3f 0f ee 62 0d 9e 97 e1 bf
       0.26671486010864326 -0.5497579823926929
000560 25 d0 9c ea ed f0 13 3e a1 82 cf 90 a0 65 fe 3f
       1.1607265517235254e-09 1.8998113304770998
000570 b9 09 f6 7e ab b2 35 40 24 d0 52 18 eb ef a5 3f
       21.69792932040011 0.0428460566703566
000580 b7 e8 38 f4 6e 30 d1 3f 9c 95 d8 00 65 9c e3 bf
       0.26858114099344327 -0.6128411308788375
000590 24 77 c4 d8 19 d0 0e 3e 1c 5b 6c e1 84 43 fe 3f
       8.967732542099256e-10 1.8914841466518686
0005a0 b9 09 f6 7e ab b2 35 40 24 d0 52 18 eb ef a5 3f
       21.69792932040011 0.0428460566703566
0005b0 b7 e8 38 f4 6e 30 d1 3f 9c 95 d8 00 65 9c e3 bf
       0.26858114099344327 -0.6128411308788375
0005c0 24 77 c4 d8 19 d0 0e 3e 1c 5b 6c e1 84 43 fe 3f
       8.967732542099256e-10 1.8914841466518686
0005d0 b9 09 f6 7e ab b2 35 40 24 d0 52 18 eb ef a5 3f
       21.69792932040011 0.0428460566703566
0005e0 b7 e8 38 f4 6e 30 d1 3f 9c 95 d8 00 65 9c e3 bf
       0.26858114099344327 -0.6128411308788375
0005f0 24 77 c4 d8 19 d0 0e 3e 1c 5b 6c e1 84 43 fe 3f
       8.967732542099256e-10 1.8914841466518686
000600 75 c2 48 58 69 7f 34 40 10 01 72 b8 27 d7 a5 3f
       20.497701185000967 0.04265712858705417
000610 b5 88 5b 1c fd 56 d1 3f 16 d4 e3 1a ee e1 e4 bf
       0.2709343697480436 -0.6525793576425964
000620 31 fc de bc 20 ff 08 3e 06 fe f2 c1 5c 17 fe 3f
       7.274966130743556e-10 1.88070369492914
000630 20 93 58 99 f3 70 33 40 83 a3 28 f7 15 c4 a5 3f
       19.441217025875744 0.04251164094995998
000640 02 18 c0 cf 63 7b d1 3f ab 53 2e fe b4 7b e5 bf
       0.2731561211406871 -0.6713509525749165
000650 9c 58 0d bc 7e 62 06 3e c3 be df 58 d2 00 fe 3f
       6.514818616037513e-10 1.8752006026879122
000660 20 93 58 99 f3 70 33 40 83 a3 28 f7 15 c4 a5 3f
       19.441217025875744 0.04251164094995998
000670 02 18 c0 cf 63 7b d1 3f ab 53 2e fe b4 7b e5 bf
       0.2731561211406871 -0.6713509525749165
000680 9c 58 0d bc 7e 62 06 3e c3 be df 58 d2 00 fe 3f
       6.514818616037513e-10 1.8752006026879122
000690 b6 9f c5 cc 31 ae 34 40 ac 0c fa 9f fd da a5 3f
       20.68044738602449 0.042686391619122105
0006a0 c8 1b 59 f6 09 51 d1 3f c8 3c 4f e8 97 85 e5 bf
       0.2705712228529902 -0.6725577866835915
0006b0 d8 74 a6 f7 c3 d6 05 3e f3 7c 33 ab 50 1c fe 3f
       6.355964498644055e-10 1.8819128692192038
0006c0 b6 9f c5 cc 31 ae 34 40 ac 0c fa 9f fd da a5 3f
       20.68044738602449 0.042686391619122105
0006d0 c8 1b 59 f6 09 51 d1 3f c8 3c 4f e8 97 85 e5 bf
       0.2705712228529902 -0.6725577866835915
0006e0 d8 74 a6 f7 c3 d6 05 3e f3 7c 33 ab 50 1c fe 3f
       6.355964498644055e-10 1.8819128692192038
0006f0 98 13 31 14 a5 8e 33 40 5f 8f 3d 5d 4b bd a5 3f
       19.55720640371473 0.042459826595204524
000700 4a 66 ba 85 b9 75 d1 3f 92 3d 52 fd 61 f5 e5 bf
       0.2728103452624039 -0.6862039516144469
000710 8c 39 f1 b6 42 90 03 3e 2e d4 8f ed 2f 00 fe 3f
       5.693733105519786e-10 1.8750457076796567
000720 98 13 31 14 a5 8e 33 40 5f 8f 3d 5d 4b bd a5 3f
       19.55720640371473 0.042459826595204524
000730 4a 66 ba 85 b9 75 d1 3f 92 3d 52 fd 61 f5 e5 bf
       0.2728103452624039 -0.6862039516144469
000740 8c 39 f1 b6 42 90 03 3e 2e d4 8f ed 2f 00 fe 3f
       5.693733105519786e-10 1.8750457076796567
000750 a1 4c b7 13 b7 db 33 40 0a 90 69 9a 95 ba a5 3f
       19.85826228356439 0.042439150904812165
000760 e7 a0 ca 61 95 6f d1 3f bf 46 ac 45 d9 33 e7 bf
       0.27243551778748415 -0.7250791893768208
000770 ce e7 9e bc 48 08 fb 3d 36 dc dd f2 ff 07 fe 3f
       3.9337260933074554e-10 1.8769530760744266
000780 f6 4f 72 04 1f d3 32 40 f8 3e 07 c8 46 a4 a5 3f
       18.824692037494934 0.04226895515205159
000790 8c 74 d0 b2 e3 94 d1 3f 1f d8 45 1a bc f0 e7 bf
       0.27471249067623016 -0.7481365693226997
0007a0 2b 8d 9f 72 8b ca f4 3d 21 08 a3 b1 89 d9 fd 3f
       3.0255163879712426e-10 1.8656098307551547
0007b0 b7 62 04 9d a1 02 33 40 e5 d3 5c 1a 1f 94 a5 3f
       19.010278523989395 0.04214570233163054
0007c0 26 04 59 c3 e6 87 d1 3f 9d b5 13 a6 18 32 e8 bf
       0.2739197642986845 -0.7561152690592966
0007d0 fa df 13 da 93 37 f1 3d f2 9d 47 f6 fc c9 fd 3f
       2.505417766287026e-10 1.861813509016312
0007e0 84 03 0f b4 12 87 32 40 59 23 f3 26 eb 94 a5 3f
       18.52762914053484 0.042151783470734734
0007f0 e8 52 9e c2 36 9e d1 3f e6 24 39 b1 d8 ae e8 bf
       0.2752816105433298 -0.7713435613051416
